…
/home/hangenyuu/micromamba/envs/cppp/lib/python3.9/site-packages/lightning/pytorch/trainer/connectors/data_connector.py:425: The 'train_dataloader' does not have many workers which may be a bottleneck. Consider increasing the value of the `num_workers` argument` to `num_workers=5` in the `DataLoader` to improve performance.
/home/hangenyuu/micromamba/envs/cppp/lib/python3.9/site-packages/lightning/pytorch/trainer/connectors/data_connector.py:425: The 'val_dataloader' does not have many workers which may be a bottleneck. Consider increasing the value of the `num_workers` argument` to `num_workers=5` in the `DataLoader` to improve performance.
Seed: 42
Start time: 2025-08-09 23:12:49.092685
Training: |          | 0/? [00:00<?, ?it/s]Training:   0%|          | 0/3 [00:00<?, ?it/s]Epoch 0:   0%|          | 0/3 [00:00<?, ?it/s] Sequential(
  (0): Linear(
    (model): Linear(in_features=2048, out_features=128, bias=True)
  )
)
Sequential(
  (0): Linear(
    (model): Linear(in_features=256, out_features=1, bias=True)
  )
)
Train loss: 0.8216783404350281
Epoch 0:  33%|███▎      | 1/3 [00:00<00:01,  1.39it/s]Epoch 0:  33%|███▎      | 1/3 [00:00<00:01,  1.39it/s, v_num=abb2]Sequential(
  (0): Linear(
    (model): Linear(in_features=2048, out_features=128, bias=True)
  )
)
Sequential(
  (0): Linear(
    (model): Linear(in_features=256, out_features=1, bias=True)
  )
)
Train loss: 1.0941073894500732
Epoch 0:  67%|██████▋   | 2/3 [00:04<00:02,  0.42it/s, v_num=abb2]Epoch 0:  67%|██████▋   | 2/3 [00:04<00:02,  0.42it/s, v_num=abb2]Sequential(
  (0): Linear(
    (model): Linear(in_features=2048, out_features=128, bias=True)
  )
)
Sequential(
  (0): Linear(
    (model): Linear(in_features=256, out_features=1, bias=True)
  )
)
Train loss: 0.8004155158996582
Epoch 0: 100%|██████████| 3/3 [00:08<00:00,  0.37it/s, v_num=abb2]Epoch 0: 100%|██████████| 3/3 [00:08<00:00,  0.37it/s, v_num=abb2]
Validation: |          | 0/? [00:00<?, ?it/s][A
Validation:   0%|          | 0/1 [00:00<?, ?it/s][A
Validation DataLoader 0:   0%|          | 0/1 [00:00<?, ?it/s][ASequential(
  (0): Linear(
    (model): Linear(in_features=2048, out_features=128, bias=True)
  )
)
Sequential(
  (0): Linear(
    (model): Linear(in_features=256, out_features=1, bias=True)
  )
)
Validation loss: 0.7935907244682312
Validation MCC: 0.1063179150223732

Validation DataLoader 0: 100%|██████████| 1/1 [00:00<00:00,  5.38it/s][A
                                                                      [AEpoch 0: 100%|██████████| 3/3 [00:08<00:00,  0.34it/s, v_num=abb2]Epoch 0: 100%|██████████| 3/3 [00:08<00:00,  0.34it/s, v_num=abb2]`Trainer.fit` stopped: `max_epochs=1` reached.
Epoch 0: 100%|██████████| 3/3 [00:08<00:00,  0.34it/s, v_num=abb2]LOCAL_RANK: 0 - CUDA_VISIBLE_DEVICES: [0]

Validation: |          | 0/? [00:00<?, ?it/s]Validation:   0%|          | 0/1 [00:00<?, ?it/s]Validation DataLoader 0:   0%|          | 0/1 [00:00<?, ?it/s]Sequential(
  (0): Linear(
    (model): Linear(in_features=2048, out_features=128, bias=True)
  )
)
Sequential(
  (0): Linear(
    (model): Linear(in_features=256, out_features=1, bias=True)
  )
)
Validation loss: 0.7935907244682312
Validation MCC: 0.1063179150223732
Validation DataLoader 0: 100%|██████████| 1/1 [00:00<00:00, 136.39it/s]Validation DataLoader 0: 100%|██████████| 1/1 [00:00<00:00, 106.05it/s]LOCAL_RANK: 0 - CUDA_VISIBLE_DEVICES: [0]
/home/hangenyuu/micromamba/envs/cppp/lib/python3.9/site-packages/lightning/pytorch/trainer/connectors/data_connector.py:425: The 'test_dataloader' does not have many workers which may be a bottleneck. Consider increasing the value of the `num_workers` argument` to `num_workers=5` in the `DataLoader` to improve performance.
…
